…
Mon 23 Dec 2024 15:09:12 INFO 
====Testing====
baby
The number of users: 19445
Average actions of users: 1.1150424273592183
The number of items: 5549
Average actions of items: 3.907370697422959
The number of inters: 21682
The sparsity of the dataset: 99.97990552482683%
Mon 23 Dec 2024 15:09:20 INFO 

=================================


Mon 23 Dec 2024 15:09:20 INFO =========1/324: Parameters:['mm_image_weight', 'k', 'u_layers', 'n_mm_layers', 'knn_k', 'aggr_mode', 'reg_weight', 'learning_rate', 'seed']=(0.1, 30, 1, 1, 5, 'add', 0.001, 0.0001, 999)=======
Mon 23 Dec 2024 15:09:22 INFO DRAGON(
  (MLP_v): Linear(in_features=64, out_features=64, bias=False)
  (MLP_t): Linear(in_features=64, out_features=64, bias=False)
  (image_embedding): Embedding(7050, 4096)
  (image_trs): Linear(in_features=4096, out_features=64, bias=True)
  (text_embedding): Embedding(7050, 384)
  (text_trs): Linear(in_features=384, out_features=64, bias=True)
  (MLP_user): Linear(in_features=128, out_features=64, bias=True)
  (v_gcn): GCN(
    (MLP): Linear(in_features=4096, out_features=256, bias=True)
    (MLP_1): Linear(in_features=256, out_features=64, bias=True)
    (conv_embed_1): Base_gcn(64, 64)
  )
  (t_gcn): GCN(
    (MLP): Linear(in_features=384, out_features=256, bias=True)
    (MLP_1): Linear(in_features=256, out_features=64, bias=True)
    (conv_embed_1): Base_gcn(64, 64)
  )
  (user_graph): User_Graph_sample()
)
Trainable parameters: 35609534
Mon 23 Dec 2024 15:09:28 INFO epoch 0 training [time: 5.61s, train loss: 33.9129]
Mon 23 Dec 2024 15:09:34 INFO epoch 0 evaluating [time: 2.81s, valid_score: 0.055900]
Mon 23 Dec 2024 15:09:34 INFO valid result: 
recall@5: 0.0214    recall@10: 0.0347    recall@20: 0.0559    recall@50: 0.1035    ndcg@5: 0.0144    ndcg@10: 0.0187    ndcg@20: 0.0241    ndcg@50: 0.0335    precision@5: 0.0045    precision@10: 0.0036    precision@20: 0.0029    precision@50: 0.0022    map@5: 0.0119    map@10: 0.0136    map@20: 0.0151    map@50: 0.0165    
…
